…
2024-06-15 16:21:13,757 — Setup Dataloader — INFO — Create data loader from custom dataset with batchsize: 32, shuffle: True
2024-06-15 16:21:13,757 — Train — INFO — Initialise model: convnet
2024-06-15 16:21:13,757 — Train — INFO — Initialise loss function: CrossEntropyLoss
2024-06-15 16:21:13,757 — Train — INFO — Initialise optimiser: Adam
2024-06-15 16:21:32,454 — Train — INFO — Providing model summary
2024-06-15 16:21:32,454 — Train — INFO — Providing model summary
----------------------------------------------------------------
        Layer (type)               Output Shape         Param #
================================================================
            Conv2d-1          [-1, 128, 32, 32]           3,584
              ReLU-2          [-1, 128, 32, 32]               0
         MaxPool2d-3          [-1, 128, 16, 16]               0
            Conv2d-4           [-1, 64, 16, 16]          73,792
              ReLU-5           [-1, 64, 16, 16]               0
         MaxPool2d-6             [-1, 64, 8, 8]               0
            Conv2d-7             [-1, 32, 8, 8]          18,464
              ReLU-8             [-1, 32, 8, 8]               0
         MaxPool2d-9             [-1, 32, 4, 4]               0
          ConvNet-10             [-1, 32, 4, 4]               0
           Linear-11                  [-1, 512]         262,656
             ReLU-12                  [-1, 512]               0
           Linear-13                  [-1, 256]         131,328
             ReLU-14                  [-1, 256]               0
           Linear-15                  [-1, 100]          25,700
FullyConnectedNet-16                  [-1, 100]               0
================================================================
Total params: 515,524
Trainable params: 515,524
Non-trainable params: 0
----------------------------------------------------------------
Input size (MB): 0.01
Forward/backward pass size (MB): 2.58
Params size (MB): 1.97
Estimated Total Size (MB): 4.56
----------------------------------------------------------------
2024-06-15 16:21:45,189 — Train — INFO — Training model with optimiser: Adam (
…
